#### ARCHITECTURE ####
Node Encoder:
 Sequential(
  (0): Linear(1, 64, bias=True)
  (1): PReLU(num_parameters=1)
) 

Edge Encoder:
 None 

Linear:
 Linear(in_features=128, out_features=64, bias=True) 

Model:
 Sequential(
  (0): WeightedGATv2Conv(64, 8, heads=8)
  (1): MLP(
  (model): Sequential(
    (0): LinearBlock(
      (model): Sequential(
        (0): Linear(in_features=64, out_features=1000, bias=True)
        (1): PReLU(num_parameters=1)
      )
    )
    (1): LinearBlock(
      (model): Sequential(
        (0): Linear(in_features=1000, out_features=1000, bias=True)
        (1): PReLU(num_parameters=1)
      )
    )
    (2): LinearBlock(
      (model): Sequential(
        (0): Linear(in_features=1000, out_features=64, bias=True)
        (1): PReLU(num_parameters=1)
      )
    )
  )
)
  (2): WeightedGATv2Conv(64, 8, heads=8)
  (3): MLP(
  (model): Sequential(
    (0): LinearBlock(
      (model): Sequential(
        (0): Linear(in_features=64, out_features=1000, bias=True)
        (1): PReLU(num_parameters=1)
      )
    )
    (1): LinearBlock(
      (model): Sequential(
        (0): Linear(in_features=1000, out_features=1000, bias=True)
        (1): PReLU(num_parameters=1)
      )
    )
    (2): LinearBlock(
      (model): Sequential(
        (0): Linear(in_features=1000, out_features=64, bias=True)
        (1): PReLU(num_parameters=1)
      )
    )
  )
)
  (4): WeightedGATv2Conv(64, 8, heads=8)
  (5): MLP(
  (model): Sequential(
    (0): LinearBlock(
      (model): Sequential(
        (0): Linear(in_features=64, out_features=1000, bias=True)
        (1): PReLU(num_parameters=1)
      )
    )
    (1): LinearBlock(
      (model): Sequential(
        (0): Linear(in_features=1000, out_features=1000, bias=True)
        (1): PReLU(num_parameters=1)
      )
    )
    (2): LinearBlock(
      (model): Sequential(
        (0): Linear(in_features=1000, out_features=64, bias=True)
        (1): PReLU(num_parameters=1)
      )
    )
  )
)
  (6): WeightedGATv2Conv(64, 8, heads=8)
  (7): MLP(
  (model): Sequential(
    (0): LinearBlock(
      (model): Sequential(
        (0): Linear(in_features=64, out_features=1000, bias=True)
        (1): PReLU(num_parameters=1)
      )
    )
    (1): LinearBlock(
      (model): Sequential(
        (0): Linear(in_features=1000, out_features=1000, bias=True)
        (1): PReLU(num_parameters=1)
      )
    )
    (2): LinearBlock(
      (model): Sequential(
        (0): Linear(in_features=1000, out_features=64, bias=True)
        (1): PReLU(num_parameters=1)
      )
    )
  )
)
) 

Head 1:
 Bilinear 

Head 2:
 Sequential(
  (0): MLP(
    (model): Sequential(
      (0): LinearBlock(
        (model): Sequential(
          (0): Linear(in_features=32768, out_features=1000, bias=True)
          (1): PReLU(num_parameters=1)
        )
      )
      (1): LinearBlock(
        (model): Sequential(
          (0): Linear(in_features=1000, out_features=1000, bias=True)
          (1): PReLU(num_parameters=1)
        )
      )
      (2): LinearBlock(
        (model): Sequential(
          (0): Linear(in_features=1000, out_features=1000, bias=True)
          (1): PReLU(num_parameters=1)
        )
      )
      (3): LinearBlock(
        (model): Sequential(
          (0): Linear(in_features=1000, out_features=1000, bias=True)
          (1): PReLU(num_parameters=1)
        )
      )
      (4): LinearBlock(
        (model): Sequential(
          (0): Linear(in_features=1000, out_features=1000, bias=True)
          (1): PReLU(num_parameters=1)
        )
      )
      (5): LinearBlock(
        (model): Sequential(
          (0): Linear(in_features=1000, out_features=1000, bias=True)
          (1): PReLU(num_parameters=1)
        )
      )
      (6): LinearBlock(
        (model): Sequential(
          (0): Linear(in_features=1000, out_features=1024, bias=True)
          (1): PReLU(num_parameters=1)
        )
      )
    )
  )
  (1): FillDiagonalsFromArray()
) 

#### ARCHITECTURE ####
Sign Net:
 SignNet(
  (phi): GNN3d(
    (convs): ModuleList(
      (0): MaskedGINConv(
        (nn): MaskedMLP(
          (layers): ModuleList(
            (0): Linear(in_features=1, out_features=64, bias=False)
            (1): Linear(in_features=64, out_features=64, bias=True)
          )
          (norms): ModuleList(
            (0): MaskedBN(
              (bn): BatchNorm1d(64, eps=1e-05, momentum=0.1, affine=True, track_running_stats=True)
            )
            (1): MaskedBN(
              (bn): BatchNorm1d(64, eps=1e-05, momentum=0.1, affine=True, track_running_stats=True)
            )
          )
        )
        (layer): GINConv(nn=Identity())
      )
      (1): MaskedGINConv(
        (nn): MaskedMLP(
          (layers): ModuleList(
            (0): Linear(in_features=64, out_features=64, bias=False)
            (1): Linear(in_features=64, out_features=64, bias=True)
          )
          (norms): ModuleList(
            (0): MaskedBN(
              (bn): BatchNorm1d(64, eps=1e-05, momentum=0.1, affine=True, track_running_stats=True)
            )
            (1): MaskedBN(
              (bn): BatchNorm1d(64, eps=1e-05, momentum=0.1, affine=True, track_running_stats=True)
            )
          )
        )
        (layer): GINConv(nn=Identity())
      )
      (2): MaskedGINConv(
        (nn): MaskedMLP(
          (layers): ModuleList(
            (0): Linear(in_features=64, out_features=64, bias=False)
            (1): Linear(in_features=64, out_features=64, bias=True)
          )
          (norms): ModuleList(
            (0): MaskedBN(
              (bn): BatchNorm1d(64, eps=1e-05, momentum=0.1, affine=True, track_running_stats=True)
            )
            (1): MaskedBN(
              (bn): BatchNorm1d(64, eps=1e-05, momentum=0.1, affine=True, track_running_stats=True)
            )
          )
        )
        (layer): GINConv(nn=Identity())
      )
      (3): MaskedGINConv(
        (nn): MaskedMLP(
          (layers): ModuleList(
            (0): Linear(in_features=64, out_features=64, bias=False)
            (1): Linear(in_features=64, out_features=64, bias=True)
          )
          (norms): ModuleList(
            (0): MaskedBN(
              (bn): BatchNorm1d(64, eps=1e-05, momentum=0.1, affine=True, track_running_stats=True)
            )
            (1): MaskedBN(
              (bn): BatchNorm1d(64, eps=1e-05, momentum=0.1, affine=True, track_running_stats=True)
            )
          )
        )
        (layer): GINConv(nn=Identity())
      )
      (4): MaskedGINConv(
        (nn): MaskedMLP(
          (layers): ModuleList(
            (0): Linear(in_features=64, out_features=64, bias=False)
            (1): Linear(in_features=64, out_features=64, bias=True)
          )
          (norms): ModuleList(
            (0): MaskedBN(
              (bn): BatchNorm1d(64, eps=1e-05, momentum=0.1, affine=True, track_running_stats=True)
            )
            (1): MaskedBN(
              (bn): BatchNorm1d(64, eps=1e-05, momentum=0.1, affine=True, track_running_stats=True)
            )
          )
        )
        (layer): GINConv(nn=Identity())
      )
      (5): MaskedGINConv(
        (nn): MaskedMLP(
          (layers): ModuleList(
            (0): Linear(in_features=64, out_features=64, bias=False)
            (1): Linear(in_features=64, out_features=64, bias=True)
          )
          (norms): ModuleList(
            (0): MaskedBN(
              (bn): BatchNorm1d(64, eps=1e-05, momentum=0.1, affine=True, track_running_stats=True)
            )
            (1): MaskedBN(
              (bn): BatchNorm1d(64, eps=1e-05, momentum=0.1, affine=True, track_running_stats=True)
            )
          )
        )
        (layer): GINConv(nn=Identity())
      )
      (6): MaskedGINConv(
        (nn): MaskedMLP(
          (layers): ModuleList(
            (0): Linear(in_features=64, out_features=64, bias=False)
            (1): Linear(in_features=64, out_features=64, bias=True)
          )
          (norms): ModuleList(
            (0): MaskedBN(
              (bn): BatchNorm1d(64, eps=1e-05, momentum=0.1, affine=True, track_running_stats=True)
            )
            (1): MaskedBN(
              (bn): BatchNorm1d(64, eps=1e-05, momentum=0.1, affine=True, track_running_stats=True)
            )
          )
        )
        (layer): GINConv(nn=Identity())
      )
      (7): MaskedGINConv(
        (nn): MaskedMLP(
          (layers): ModuleList(
            (0): Linear(in_features=64, out_features=64, bias=False)
            (1): Linear(in_features=64, out_features=64, bias=True)
          )
          (norms): ModuleList(
            (0): MaskedBN(
              (bn): BatchNorm1d(64, eps=1e-05, momentum=0.1, affine=True, track_running_stats=True)
            )
            (1): MaskedBN(
              (bn): BatchNorm1d(64, eps=1e-05, momentum=0.1, affine=True, track_running_stats=True)
            )
          )
        )
        (layer): GINConv(nn=Identity())
      )
    )
    (norms): ModuleList(
      (0): MaskedBN(
        (bn): BatchNorm1d(64, eps=1e-05, momentum=0.1, affine=True, track_running_stats=True)
      )
      (1): MaskedBN(
        (bn): BatchNorm1d(64, eps=1e-05, momentum=0.1, affine=True, track_running_stats=True)
      )
      (2): MaskedBN(
        (bn): BatchNorm1d(64, eps=1e-05, momentum=0.1, affine=True, track_running_stats=True)
      )
      (3): MaskedBN(
        (bn): BatchNorm1d(64, eps=1e-05, momentum=0.1, affine=True, track_running_stats=True)
      )
      (4): MaskedBN(
        (bn): BatchNorm1d(64, eps=1e-05, momentum=0.1, affine=True, track_running_stats=True)
      )
      (5): MaskedBN(
        (bn): BatchNorm1d(64, eps=1e-05, momentum=0.1, affine=True, track_running_stats=True)
      )
      (6): MaskedBN(
        (bn): BatchNorm1d(64, eps=1e-05, momentum=0.1, affine=True, track_running_stats=True)
      )
      (7): MaskedBN(
        (bn): BatchNorm1d(64, eps=1e-05, momentum=0.1, affine=True, track_running_stats=True)
      )
    )
  )
  (rho): SetTransformer(
    (transformer_layers): ModuleList(
      (0): TransformerEncoderLayer(
        (slf_attn): MultiHeadAttention(
          (w_qs): Linear(in_features=64, out_features=64, bias=False)
          (w_ks): Linear(in_features=64, out_features=64, bias=False)
          (w_vs): Linear(in_features=64, out_features=64, bias=False)
          (fc): Linear(in_features=64, out_features=64, bias=False)
          (attention): ScaledDotProductAttention(
            (dropout): Dropout(p=0.1, inplace=False)
          )
          (dropout): Dropout(p=0, inplace=False)
          (norm): MaskedLN(
            (ln): LayerNorm((64,), eps=1e-06, elementwise_affine=True)
          )
        )
        (pos_ffn): PositionwiseFeedForward(
          (w_1): Linear(in_features=64, out_features=64, bias=True)
          (w_2): Linear(in_features=64, out_features=64, bias=True)
          (norm): MaskedLN(
            (ln): LayerNorm((64,), eps=1e-06, elementwise_affine=True)
          )
          (dropout): Dropout(p=0, inplace=False)
        )
      )
      (1): TransformerEncoderLayer(
        (slf_attn): MultiHeadAttention(
          (w_qs): Linear(in_features=64, out_features=64, bias=False)
          (w_ks): Linear(in_features=64, out_features=64, bias=False)
          (w_vs): Linear(in_features=64, out_features=64, bias=False)
          (fc): Linear(in_features=64, out_features=64, bias=False)
          (attention): ScaledDotProductAttention(
            (dropout): Dropout(p=0.1, inplace=False)
          )
          (dropout): Dropout(p=0, inplace=False)
          (norm): MaskedLN(
            (ln): LayerNorm((64,), eps=1e-06, elementwise_affine=True)
          )
        )
        (pos_ffn): PositionwiseFeedForward(
          (w_1): Linear(in_features=64, out_features=64, bias=True)
          (w_2): Linear(in_features=64, out_features=64, bias=True)
          (norm): MaskedLN(
            (ln): LayerNorm((64,), eps=1e-06, elementwise_affine=True)
          )
          (dropout): Dropout(p=0, inplace=False)
        )
      )
      (2): TransformerEncoderLayer(
        (slf_attn): MultiHeadAttention(
          (w_qs): Linear(in_features=64, out_features=64, bias=False)
          (w_ks): Linear(in_features=64, out_features=64, bias=False)
          (w_vs): Linear(in_features=64, out_features=64, bias=False)
          (fc): Linear(in_features=64, out_features=64, bias=False)
          (attention): ScaledDotProductAttention(
            (dropout): Dropout(p=0.1, inplace=False)
          )
          (dropout): Dropout(p=0, inplace=False)
          (norm): MaskedLN(
            (ln): LayerNorm((64,), eps=1e-06, elementwise_affine=True)
          )
        )
        (pos_ffn): PositionwiseFeedForward(
          (w_1): Linear(in_features=64, out_features=64, bias=True)
          (w_2): Linear(in_features=64, out_features=64, bias=True)
          (norm): MaskedLN(
            (ln): LayerNorm((64,), eps=1e-06, elementwise_affine=True)
          )
          (dropout): Dropout(p=0, inplace=False)
        )
      )
      (3): TransformerEncoderLayer(
        (slf_attn): MultiHeadAttention(
          (w_qs): Linear(in_features=64, out_features=64, bias=False)
          (w_ks): Linear(in_features=64, out_features=64, bias=False)
          (w_vs): Linear(in_features=64, out_features=64, bias=False)
          (fc): Linear(in_features=64, out_features=64, bias=False)
          (attention): ScaledDotProductAttention(
            (dropout): Dropout(p=0.1, inplace=False)
          )
          (dropout): Dropout(p=0, inplace=False)
          (norm): MaskedLN(
            (ln): LayerNorm((64,), eps=1e-06, elementwise_affine=True)
          )
        )
        (pos_ffn): PositionwiseFeedForward(
          (w_1): Linear(in_features=64, out_features=64, bias=True)
          (w_2): Linear(in_features=64, out_features=64, bias=True)
          (norm): MaskedLN(
            (ln): LayerNorm((64,), eps=1e-06, elementwise_affine=True)
          )
          (dropout): Dropout(p=0, inplace=False)
        )
      )
      (4): TransformerEncoderLayer(
        (slf_attn): MultiHeadAttention(
          (w_qs): Linear(in_features=64, out_features=64, bias=False)
          (w_ks): Linear(in_features=64, out_features=64, bias=False)
          (w_vs): Linear(in_features=64, out_features=64, bias=False)
          (fc): Linear(in_features=64, out_features=64, bias=False)
          (attention): ScaledDotProductAttention(
            (dropout): Dropout(p=0.1, inplace=False)
          )
          (dropout): Dropout(p=0, inplace=False)
          (norm): MaskedLN(
            (ln): LayerNorm((64,), eps=1e-06, elementwise_affine=True)
          )
        )
        (pos_ffn): PositionwiseFeedForward(
          (w_1): Linear(in_features=64, out_features=64, bias=True)
          (w_2): Linear(in_features=64, out_features=64, bias=True)
          (norm): MaskedLN(
            (ln): LayerNorm((64,), eps=1e-06, elementwise_affine=True)
          )
          (dropout): Dropout(p=0, inplace=False)
        )
      )
      (5): TransformerEncoderLayer(
        (slf_attn): MultiHeadAttention(
          (w_qs): Linear(in_features=64, out_features=64, bias=False)
          (w_ks): Linear(in_features=64, out_features=64, bias=False)
          (w_vs): Linear(in_features=64, out_features=64, bias=False)
          (fc): Linear(in_features=64, out_features=64, bias=False)
          (attention): ScaledDotProductAttention(
            (dropout): Dropout(p=0.1, inplace=False)
          )
          (dropout): Dropout(p=0, inplace=False)
          (norm): MaskedLN(
            (ln): LayerNorm((64,), eps=1e-06, elementwise_affine=True)
          )
        )
        (pos_ffn): PositionwiseFeedForward(
          (w_1): Linear(in_features=64, out_features=64, bias=True)
          (w_2): Linear(in_features=64, out_features=64, bias=True)
          (norm): MaskedLN(
            (ln): LayerNorm((64,), eps=1e-06, elementwise_affine=True)
          )
          (dropout): Dropout(p=0, inplace=False)
        )
      )
      (6): TransformerEncoderLayer(
        (slf_attn): MultiHeadAttention(
          (w_qs): Linear(in_features=64, out_features=64, bias=False)
          (w_ks): Linear(in_features=64, out_features=64, bias=False)
          (w_vs): Linear(in_features=64, out_features=64, bias=False)
          (fc): Linear(in_features=64, out_features=64, bias=False)
          (attention): ScaledDotProductAttention(
            (dropout): Dropout(p=0.1, inplace=False)
          )
          (dropout): Dropout(p=0, inplace=False)
          (norm): MaskedLN(
            (ln): LayerNorm((64,), eps=1e-06, elementwise_affine=True)
          )
        )
        (pos_ffn): PositionwiseFeedForward(
          (w_1): Linear(in_features=64, out_features=64, bias=True)
          (w_2): Linear(in_features=64, out_features=64, bias=True)
          (norm): MaskedLN(
            (ln): LayerNorm((64,), eps=1e-06, elementwise_affine=True)
          )
          (dropout): Dropout(p=0, inplace=False)
        )
      )
      (7): TransformerEncoderLayer(
        (slf_attn): MultiHeadAttention(
          (w_qs): Linear(in_features=64, out_features=64, bias=False)
          (w_ks): Linear(in_features=64, out_features=64, bias=False)
          (w_vs): Linear(in_features=64, out_features=64, bias=False)
          (fc): Linear(in_features=64, out_features=64, bias=False)
          (attention): ScaledDotProductAttention(
            (dropout): Dropout(p=0.1, inplace=False)
          )
          (dropout): Dropout(p=0, inplace=False)
          (norm): MaskedLN(
            (ln): LayerNorm((64,), eps=1e-06, elementwise_affine=True)
          )
        )
        (pos_ffn): PositionwiseFeedForward(
          (w_1): Linear(in_features=64, out_features=64, bias=True)
          (w_2): Linear(in_features=64, out_features=64, bias=True)
          (norm): MaskedLN(
            (ln): LayerNorm((64,), eps=1e-06, elementwise_affine=True)
          )
          (dropout): Dropout(p=0, inplace=False)
        )
      )
    )
    (out): Sequential(
      (0): Linear(in_features=64, out_features=64, bias=False)
      (1): BatchNorm1d(64, eps=1e-05, momentum=0.1, affine=True, track_running_stats=True)
    )
  )
  (eigen_encoder): MaskedMLP(
    (layers): ModuleList(
      (0): Linear(in_features=1, out_features=1, bias=False)
      (1): Linear(in_features=1, out_features=64, bias=False)
    )
    (norms): ModuleList(
      (0): MaskedBN(
        (bn): BatchNorm1d(1, eps=1e-05, momentum=0.1, affine=True, track_running_stats=True)
      )
      (1): MaskedBN(
        (bn): BatchNorm1d(64, eps=1e-05, momentum=0.1, affine=True, track_running_stats=True)
      )
    )
  )
) 

Namespace(GNN_mode=True, transforms=[], pre_transforms=['constant', 'ContactDistance', 'GeneticDistance_norm', 'AdjPCs_8'], sparsify_threshold=None, sparsify_threshold_upper=None, top_k=None, use_node_features=False, use_edge_weights=False, use_edge_attr=True, keep_zero_edges=False, data_folder=['/project2/de
…
