Took 1046.0 seconds to move data to scratch
#### ARCHITECTURE ####
None
Sequential(
  (0): SignedConv(3, 8, first_aggr=True)
  (1): Linear(16, 10, bias=True)
  (2): PReLU(num_parameters=1)
  (3): Linear(10, 10, bias=True)
  (4): PReLU(num_parameters=1)
  (5): Linear(10, 16, bias=True)
  (6): PReLU(num_parameters=1)
  (7): SignedConv(8, 8, first_aggr=False)
  (8): Linear(16, 10, bias=True)
  (9): PReLU(num_parameters=1)
  (10): Linear(10, 10, bias=True)
  (11): PReLU(num_parameters=1)
  (12): Linear(10, 16, bias=True)
  (13): PReLU(num_parameters=1)
  (14): SignedConv(8, 8, first_aggr=False)
  (15): Linear(16, 10, bias=True)
  (16): PReLU(num_parameters=1)
  (17): Linear(10, 10, bias=True)
  (18): PReLU(num_parameters=1)
  (19): Linear(10, 16, bias=True)
  (20): PReLU(num_parameters=1)
)
Sequential(
  (0): LinearBlock(
    (model): Sequential(
      (0): Linear(in_features=32, out_features=10, bias=True)
      (1): PReLU(num_parameters=1)
    )
  )
  (1): LinearBlock(
    (model): Sequential(
      (0): Linear(in_features=10, out_features=10, bias=True)
      (1): PReLU(num_parameters=1)
    )
  )
  (2): LinearBlock(
    (model): Sequential(
      (0): Linear(in_features=10, out_features=1, bias=True)
      (1): PReLU(num_parameters=1)
    )
  )
) 

Namespace(GNN_mode=True, act='prelu', autoencoder_mode=False, batch_size=1, bottleneck=None, channels=1, classes=10, criterion=<function mse_loss at 0x7f39f5252dc0>, crop=None, cuda=True, data_folder='/scratch/midway2/erschultz/dataset_08_29_21', degree=True, delete_root=False, device=device(type='cuda'), d
…
