#### ARCHITECTURE ####
Node Encoder:
 Sequential(
  (0): Linear(3, 1000, bias=True)
  (1): PReLU(num_parameters=1)
  (2): Linear(1000, 1000, bias=True)
  (3): PReLU(num_parameters=1)
  (4): Linear(1000, 64, bias=True)
  (5): PReLU(num_parameters=1)
) 

Edge Encoder:
 None 

Model:
 Sequential(
  (0): WeightedGATv2Conv(64, 8, heads=8)
  (1): Linear(64, 1000, bias=True)
  (2): PReLU(num_parameters=1)
  (3): Linear(1000, 1000, bias=True)
  (4): PReLU(num_parameters=1)
  (5): Linear(1000, 1000, bias=True)
  (6): PReLU(num_parameters=1)
  (7): Linear(1000, 1000, bias=True)
  (8): PReLU(num_parameters=1)
  (9): Linear(1000, 64, bias=True)
  (10): PReLU(num_parameters=1)
  (11): WeightedGATv2Conv(64, 8, heads=8)
  (12): Linear(64, 1000, bias=True)
  (13): PReLU(num_parameters=1)
  (14): Linear(1000, 1000, bias=True)
  (15): PReLU(num_parameters=1)
  (16): Linear(1000, 1000, bias=True)
  (17): PReLU(num_parameters=1)
  (18): Linear(1000, 1000, bias=True)
  (19): PReLU(num_parameters=1)
  (20): Linear(1000, 64, bias=True)
  (21): PReLU(num_parameters=1)
  (22): WeightedGATv2Conv(64, 8, heads=8)
  (23): Linear(64, 1000, bias=True)
  (24): PReLU(num_parameters=1)
  (25): Linear(1000, 1000, bias=True)
  (26): PReLU(num_parameters=1)
  (27): Linear(1000, 1000, bias=True)
  (28): PReLU(num_parameters=1)
  (29): Linear(1000, 1000, bias=True)
  (30): PReLU(num_parameters=1)
  (31): Linear(1000, 64, bias=True)
  (32): PReLU(num_parameters=1)
  (33): WeightedGATv2Conv(64, 8, heads=8)
  (34): Linear(64, 1000, bias=True)
  (35): PReLU(num_parameters=1)
  (36): Linear(1000, 1000, bias=True)
  (37): PReLU(num_parameters=1)
  (38): Linear(1000, 1000, bias=True)
  (39): PReLU(num_parameters=1)
  (40): Linear(1000, 1000, bias=True)
  (41): PReLU(num_parameters=1)
  (42): Linear(1000, 64, bias=True)
  (43): PReLU(num_parameters=1)
) 

Head 1:
 Bilinear 

Head 2:
 Sequential(
  (0): LinearBlock(
    (model): Sequential(
      (0): Linear(in_features=32768, out_features=1000, bias=True)
      (1): PReLU(num_parameters=1)
    )
  )
  (1): LinearBlock(
    (model): Sequential(
      (0): Linear(in_features=1000, out_features=1000, bias=True)
      (1): PReLU(num_parameters=1)
    )
  )
  (2): LinearBlock(
    (model): Sequential(
      (0): Linear(in_features=1000, out_features=1000, bias=True)
      (1): PReLU(num_parameters=1)
    )
  )
  (3): LinearBlock(
    (model): Sequential(
      (0): Linear(in_features=1000, out_features=1000, bias=True)
      (1): PReLU(num_parameters=1)
    )
  )
  (4): LinearBlock(
    (model): Sequential(
      (0): Linear(in_features=1000, out_features=1000, bias=True)
      (1): PReLU(num_parameters=1)
    )
  )
  (5): LinearBlock(
    (model): Sequential(
      (0): Linear(in_features=1000, out_features=1000, bias=True)
      (1): PReLU(num_parameters=1)
    )
  )
  (6): LinearBlock(
    (model): Sequential(
      (0): Linear(in_features=1000, out_features=1024, bias=True)
      (1): PReLU(num_parameters=1)
    )
  )
  (7): FillDiagonalsFromArray()
) 

Namespace(GNN_mode=True, transforms=[], pre_transforms=['constant', 'degree_diag_split1', 'ContactDistance', 'GeneticDistance_norm'], sparsify_threshold=None, sparsify_threshold_upper=None, top_k=None, use_node_features=False, use_edge_weights=False, use_edge_attr=True, 
…
